TFLite_Quantization/QuantizedModels/evsrnet_x4.tflite (tflite, 79696 bytes, 24 tensors)

model_2/conv2d_35/BiasAdd;StatefulPartitionedCall/model_2/conv2d_35/BiasAdd;model_2/conv2d_35/Conv2D;StatefulPartitionedCall/model_2/conv2d_35/Conv2D;unknown_22 f2 [48]
0.002531 0.012634 0.01332 -0.004246 0.013535 0.00527 -0.01066 0.01944
0.00974 -0.001161 0.009254 0.006832 -0.000602 0.00586 0.01563 -0.001678
0.010826 0.01324 -0.007412 0.00515 -0.001937 -0.00985 0.01567 0.003452
-0.007336 0.01514 0.01138 -0.01082 0.00599 0.00844 -0.01391 -0.001301
0.003702 -0.004402 0.005207 0.01236 0.003395 0.01337 0.00894 -0.00959
0.00986 0.01105 -0.00575 0.003109 0.01217 -0.002758 0.009605 0.01134
00000000: 2f19 7822 d222 599c ee22 651d 75a1 fa24
00000010: fd20 c194 bd20 ff1e ee90 001e 0024 e096
00000020: 8b21 c722 979f 461d ef97 0ba1 0324 121b
00000030: 839f c023 d421 8aa1 221e 5220 1fa3 5495
00000040: 951b 829c 551d 5422 f41a d822 9420 e9a0
00000050: 0c21 a821 e39d 5e1a 3b22 a699 eb20 ce21

model_2/conv2d_34/BiasAdd;StatefulPartitionedCall/model_2/conv2d_34/BiasAdd;model_2/conv2d_24/Conv2D;StatefulPartitionedCall/model_2/conv2d_24/Conv2D;model_2/conv2d_34/Conv2D;StatefulPartitionedCall/model_2/conv2d_34/Conv2D;unknown_20 f2 [16]
-0.01214 0.00803 0.002167 -0.00752 -0.003077 2.24e-05 0.011826 -0.0001175
-0.01003 0.012596 0.000789 -0.001081 0.001559 0.003857 0.006805 -0.003141
00000000: 37a2 1d20 7018 b39f 4d9a 7801 0e22 b387
00000010: 23a1 7322 7712 6e94 6316 e61b f81e 6f9a

model_2/conv2d_33/BiasAdd;StatefulPartitionedCall/model_2/conv2d_33/BiasAdd;model_2/conv2d_24/Conv2D;StatefulPartitionedCall/model_2/conv2d_24/Conv2D;model_2/conv2d_33/Conv2D;StatefulPartitionedCall/model_2/conv2d_33/Conv2D;unknown_18 f2 [16]
0.0192 0.02623 0.01971 0.002796 0.01945 0.01564 0.01674 -0.01895
-0.01045 -0.05374 0.01152 -0.005608 0.01046 0.01663 0.01889 0.004807
00000000: ea24 b726 0c25 ba19 fb24 0124 4924 daa4
00000010: 5aa1 e1aa e621 be9d 5b21 4224 d624 ec1c

model_2/conv2d_32/BiasAdd;StatefulPartitionedCall/model_2/conv2d_32/BiasAdd;model_2/conv2d_24/Conv2D;StatefulPartitionedCall/model_2/conv2d_24/Conv2D;model_2/conv2d_32/Conv2D;StatefulPartitionedCall/model_2/conv2d_32/Conv2D;unknown_16 f2 [16]
0.02748 -0.006348 -0.00377 -0.007805 -0.001254 -0.003277 -0.002193 -0.01088
-0.007683 0.01528 -0.00503 -0.010735 0.001223 0.0002162 -0.0002316 0.0006156
00000000: 0927 809e b99b fe9f 2395 b69a 7e98 92a1
00000010: de9f d323 279d 7fa1 0215 160b 978b 0b11

model_2/conv2d_31/BiasAdd;StatefulPartitionedCall/model_2/conv2d_31/BiasAdd;model_2/conv2d_24/Conv2D;StatefulPartitionedCall/model_2/conv2d_24/Conv2D;model_2/conv2d_31/Conv2D;StatefulPartitionedCall/model_2/conv2d_31/Conv2D;unknown_14 f2 [16]
0.004047 -0.001747 -0.03555 0.01455 0.01058 0.001297 -0.002449 -0.04245
-0.02261 0.004795 0.00292 -0.004063 -0.001108 -0.01146 0.0 -0.006695
00000000: 251c 2897 8da8 7323 6b21 5015 0499 6fa9
00000010: caa5 e91c fb19 299c 8a94 dea1 0000 db9e

model_2/conv2d_30/BiasAdd;StatefulPartitionedCall/model_2/conv2d_30/BiasAdd;model_2/conv2d_24/Conv2D;StatefulPartitionedCall/model_2/conv2d_24/Conv2D;model_2/conv2d_30/Conv2D;StatefulPartitionedCall/model_2/conv2d_30/Conv2D;unknown_12 f2 [16]
0.00412 0.0001052 0.007633 -0.000379 0.00548 0.0472 0.001758 -0.00506
0.002783 -0.01875 -0.004353 0.001689 0.003786 0.0008173 -0.00465 -0.00825
00000000: 381c e506 d11f 368e 9d1d 0b2a 3317 2e9d
00000010: b319 cda4 759c eb16 c11b b212 c39c 39a0

model_2/conv2d_29/BiasAdd;StatefulPartitionedCall/model_2/conv2d_29/BiasAdd;model_2/conv2d_24/Conv2D;StatefulPartitionedCall/model_2/conv2d_24/Conv2D;model_2/conv2d_29/Conv2D;StatefulPartitionedCall/model_2/conv2d_29/Conv2D;unknown_10 f2 [16]
0.004345 -0.03403 0.004 -0.002874 -0.01682 0.00337 -0.00902 -0.00908
0.0001911 0.02037 0.02591 -0.0004518 0.01247 0.006477 -0.00847 -0.03467
00000000: 731c 5ba8 191c e399 4ea4 e71a 9ea0 a6a0
00000010: 430a 3725 a226 678f 6222 a21e 56a0 70a8

model_2/conv2d_28/BiasAdd;StatefulPartitionedCall/model_2/conv2d_28/BiasAdd;model_2/conv2d_24/Conv2D;StatefulPartitionedCall/model_2/conv2d_24/Conv2D;model_2/conv2d_28/Conv2D;StatefulPartitionedCall/model_2/conv2d_28/Conv2D;unknown_8 f2 [16]
0.03555 0.00824 -0.00399 0.001211 0.005604 -0.00931 0.003735 0.0008836
-0.004395 0.01848 0.06168 -0.004646 -0.00318 0.006054 0.0009985 0.004597
00000000: 8d28 3820 169c f614 bd1d c4a0 a61b 3d13
00000010: 809c bb24 e52b c29c 839a 331e 1714 b51c

model_2/conv2d_27/BiasAdd;StatefulPartitionedCall/model_2/conv2d_27/BiasAdd;model_2/conv2d_24/Conv2D;StatefulPartitionedCall/model_2/conv2d_24/Conv2D;model_2/conv2d_27/Conv2D;StatefulPartitionedCall/model_2/conv2d_27/Conv2D;unknown_6 f2 [16]
0.001572 -0.003256 -0.004395 -0.01793 -0.001565 0.005672 -0.002588 -0.005848
4.244e-05 -0.0133 0.01214 -0.00522 0.002455 0.002014 0.01735 0.00742
00000000: 7016 ab9a 809c 97a4 6996 cf1d 4d99 fd9d
00000010: c802 cfa2 3722 589d 0719 2018 7124 991f

model_2/conv2d_26/BiasAdd;StatefulPartitionedCall/model_2/conv2d_26/BiasAdd;model_2/conv2d_24/Conv2D;StatefulPartitionedCall/model_2/conv2d_24/Conv2D;model_2/conv2d_26/Conv2D;StatefulPartitionedCall/model_2/conv2d_26/Conv2D;unknown_4 f2 [16]
0.002583 0.001757 2.64e-05 0.001001 0.004467 0.003254 0.006214 0.002586
-0.006203 0.006504 -0.01145 0.00294 0.004704 0.00584 -0.01093 0.009155
00000000: 4a19 3217 bb01 1a14 931c aa1a 5d1e 4c19
00000010: 5a9e a91e dda1 051a d11c fb1d 99a1 b020

model_2/conv2d_25/BiasAdd;StatefulPartitionedCall/model_2/conv2d_25/BiasAdd;model_2/conv2d_24/Conv2D;StatefulPartitionedCall/model_2/conv2d_24/Conv2D;model_2/conv2d_25/Conv2D;StatefulPartitionedCall/model_2/conv2d_25/Conv2D;unknown_2 f2 [16]
-0.005043 -0.003227 0.02197 0.01077 -0.00868 -0.001858 0.02115 0.03165
-0.010994 0.0311 0.01518 0.01257 -0.03003 -0.01622 0.005646 0.004364
00000000: 2a9d 9c9a a025 8421 72a0 9c97 6a25 0d28
00000010: a1a1 f627 c623 7022 b0a7 27a4 c81d 781c

model_2/conv2d_24/BiasAdd;StatefulPartitionedCall/model_2/conv2d_24/BiasAdd;model_2/conv2d_24/Conv2D;StatefulPartitionedCall/model_2/conv2d_24/Conv2D;unknown_0 f2 [16]
0.01403 0.01413 0.0133 0.0003793 0.01093 -0.01662 0.00549 0.00584
0.006176 -0.00238 0.02606 0.01752 -0.004807 -0.02379 0.02312 0.00922
00000000: 2f23 3c23 cf22 370e 9921 41a4 9f1d fb1d
00000010: 531e e098 ac26 7c24 ec9c 17a6 eb25 b820

model_2/conv2d_35/Conv2D;StatefulPartitionedCall/model_2/conv2d_35/Conv2D f2 [48, 3, 3, 16]
-0.04242 0.0061 -0.01534 0.05908 -0.03525 -0.1283 0.028 0.1109
0.08905 0.01947 0.1769 0.10504 -0.0723 -0.02563 -0.04745 0.006706
0.0608 -0.0693 0.0745 0.0691 0.0652 -0.162 0.156 0.04797
0.1177 -0.1852 -0.1752 -0.03506 -0.02611 -0.003185 0.1033 0.00801
0.0626 0.013336 0.01936 0.0688 -0.03143 -0.0442 -0.04987 -0.0277
-0.02946 -0.02867 0.02678 0.09564 0.0538 0.02388 -0.02187 -0.07574
-0.0526 0.0729 0.0895 -0.0945 0.05472 0.004925 0.0735 0.008095
0.1315 0.0684 0.1626 -0.05634 0.05612 0.0336 -0.03934 0.0698
-0.04126 0.04474 0.02286 0.01156 0.1179 -0.0513 0.02058 -0.008606
0.10004 0.00918 0.02249 0.01836 -0.0796 -0.006393 -0.005447 -0.075
-0.03607 0.04813 -0.03766 -0.01161 -0.0683 -0.05203 0.1248 0.01281
-0.0436 0.04498 0.1467 0.03503 -0.03372 -0.02402 0.01794 -0.09454
-0.04236 0.02682 -0.0917 -0.0612 0.0431 0.03072 0.04358 0.02386
-0.03955 -0.06915 -0.01767 0.087 0.0626 -0.05438 0.04892 0.0839
0.002783 0.003832 0.01298 -0.03464 0.03616 0.0346 -0.03314 0.02774
0.00994 0.0046 -0.04095 0.0591 -0.04266 0.0494 0.04782 -0.0874
-0.03047 0.008995 -0.0619 0.000711 0.00759 -0.01883 0.02184 0.02498
-0.00805 -0.04608 -0.0657 -0.0458 0.07837 -0.00911 0.002449 0.02246
-0.04492 -0.02158 0.1686 0.02866 0.0665 -0.05563 -0.06018 0.01978
0.001426 -0.05402 0.138 0.1595 0.10547 -0.02534 -0.01373 -0.0399
-0.04605 -0.04535 0.04715 0.0972 -0.09 -0.0014925 0.10144 -0.04608
0.09155 -0.07874 -0.1965 0.0441 0.018 0.0927 -0.04153 0.146
0.04437 -0.03078 0.02856 0.07623 -0.05478 -0.1046 -0.05112 0.01628
-0.0464 0.01564 0.0613 -0.06177 -0.01424 0.03574 0.0952 0.02304
0.02808 0.03656 0.04465 -0.0208 0.01869 0.071 0.01081 0.0317
-0.00739 0.0402 0.1447 0.05646 0.1268 -0.02101 0.08813 -0.013504
0.001228 0.01553 0.03748 0.037 0.09875 -0.01347 -0.001357 0.013466
-0.0393 -0.00746 0.01546 -0.04428 0.09753 -0.0985 0.1187 0.006386
-0.04053 0.0094 -0.03308 0.01388 0.00944 -0.00678 0.00656 0.02066
0.06964 0.0331 0.08484 0.03604 -0.02423 -0.0568 -0.02785 0.0741
0.02577 -0.06415 -0.01331 0.0865 0.01032 -0.04807 0.0589 -0.006416
-0.0831 0.009 -0.04755 0.0915 -0.04785 -0.00859 -0.01227 -0.0422
00000000: 6ea9 3f1e dba3 902b 83a8 1bb0 2b27 192f
00000010: b32d fc24 a931 b92e a1ac 90a6 13aa de1e
00000020: c82b 6fac c52c 6c2c 2c2c 2fb1 fe30 242a
00000030: 882f edb1 9bb1 7da8 afa6 869a 9c2e 1a20
00000040: 022c d422 f524 672c 06a8 a8a9 62aa 17a7
00000050: 8ba7 57a7 db26 1f2e e32a 1d26 99a5 d9ac
00000060: bcaa aa2c ba2d 0cae 012b 0b1d b42c 2520
00000070: 3530 612c 3431 36ab 2f2b 4d28 09a9 782c
00000080: 48a9 ba29 da25 eb21 8c2f 91aa 4525 68a0
00000090: 672e b320 c225 b324 18ad 8c9e 949d cdac
000000a0: 9ea8 292a d2a8 f2a1 5fac a9aa fd2f 8f22
000000b0: 95a9 c229 b230 7c28 51a8 26a6 9824 0dae
000000c0: 6ca9 de26 dead d5ab 8429 dd27 9429 1c26
000000d0: 10a9 6dac 86a4 912d 022c f6aa 432a 5f2d
000000e0: b319 d91b a522 6fa8 a128 6e28 3ea8 1a27
000000f0: 1721 b61c 3ea9 912b 76a9 532a 1f2a 98ad
00000100: cda7 9b20 ecab d311 c61f d2a4 9725 6526
00000110: 1fa0 e6a9 34ac dda9 042d aaa0 0419 c025
00000120: c0a9 86a5 6531 5627 422c 1fab b4ab 1025
00000130: d715 eaaa 6a30 1b31 c02e 7da6 08a3 1ba9
00000140: e5a9 cea9 092a 392e c3ad 1d96 7e2e e6a9
00000150: dc2d 0aad 4ab2 a529 9c24 ef2d 51a9 ac30
00000160: ae29 e1a7 5027 e12c 03ab b2ae 8baa 2b24
00000170: f0a9 0124 d92b e8ab 4aa3 9328 182e e625
00000180: 3027 ae28 b729 53a5 c924 8b2c 8921 0f28
00000190: 919f 2529 a130 3a2b 0f30 61a5 a42d eaa2
000001a0: 0815 f423 cc28 bc28 522e e6a2 8f95 e522
000001b0: 08a9 a49f ea23 aba9 3e2e 4eae 992f 8a1e
000001c0: 30a9 d020 3ca8 1b23 d520 f19e b81e 4a25
000001d0: 752c 3d28 6e2d 9d28 34a6 45ab 21a7 be2c
000001e0: 9926 1bac d1a2 892d 4921 27aa 8a2b 929e
000001f0: 52ad 9c20 16aa db2d 20aa 66a0 48a2 67a9

model_2/conv2d_34/Conv2D;StatefulPartitionedCall/model_2/conv2d_34/Conv2D f2 [16, 3, 3, 16]
0.04276 -0.0589 0.07635 0.10706 0.0971 0.0939 -0.02124 0.008415
0.109 -0.0702 0.05005 0.0084 0.00657 -0.1067 0.06696 -0.05173
0.08795 0.01127 0.04614 -0.01547 0.01153 0.03717 0.03099 0.03098
-0.0678 -0.0818 -0.168 0.06464 0.0254 0.05072 0.0751 -0.1131
-0.10284 0.03976 -0.1793 -0.06903 0.11597 0.10925 -0.11127 -0.0601
0.0845 -0.0909 -0.076 -0.08923 -0.06616 0.02266 -0.01808 -0.08716
0.1425 -0.01168 -0.0666 0.05603 -0.001832 0.0644 0.05588 -0.0819
-0.06104 -0.0325 0.05417 0.1097 0.08093 0.0986 -0.1249 0.01596
0.01727 0.023 0.09515 -0.0696 0.00909 0.03262 -0.0657 0.001139
-0.0447 0.05078 0.03235 0.09705 -0.126 -0.11035 0.08276 0.013084
0.02771 0.01805 0.000756 -0.0581 -0.03284 -0.0893 0.0331 0.01195
-0.005356 0.03217 -0.09674 0.03035 -0.02032 0.04056 0.03848 0.0487
0.04626 0.1328 -0.04675 -0.0327 -0.02034 0.00799 0.02614 0.0348
-0.010086 0.09265 0.00478 0.05795 0.0836 -0.05994 0.0175 0.0588
0.0631 -0.1392 0.03775 -0.1614 -0.0516 0.02321 0.0843 0.10297
-0.00414 0.06714 0.01554 0.1247 0.03732 -0.1302 -0.1613 0.0771
0.001955 -0.005955 0.01729 0.0627 -0.014656 -0.0959 0.1257 -0.1592
0.0457 -0.02153 0.081 0.0845 0.05103 0.0719 0.04434 -0.01429
0.05655 -0.001863 0.02162 0.0532 -0.05994 0.02898 -0.077 -0.277
0.01231 -0.0705 -0.1292 -0.01076 0.0231 -0.0934 0.0961 -0.07684
-0.1595 0.001554 -0.068 0.064 0.04166 -0.132 0.1094 -0.058
0.05273 0.05267 -0.0008707 0.1691 0.02832 -0.1536 0.0361 0.01147
0.0765 0.002012 -0.12415 0.1515 0.1061 0.0742 0.00741 0.1282
0.10815 -0.0899 0.00947 0.01802 0.1039 -0.12164 -0.12396 -0.0628
0.0664 -0.0655 -0.08167 0.06964 0.0967 0.00858 -0.01778 -0.04514
0.0698 -0.05408 0.05557 0.1251 -0.1338 0.1022 -0.0747 -0.0843
0.11725 0.10046 0.1302 0.00919 0.0711 0.1256 -0.013695 0.3513
-0.1201 -0.05484 0.0525 -0.06287 0.0008593 0.0988 0.08545 -0.09393
-0.1564 0.1153 -0.00642 -0.04904 0.0372 0.09534 -0.143 0.2842
-0.114 0.0633 0.1477 0.01069 0.05023 0.0476 0.05878 0.1543
0.02036 -0.05023 0.0272 0.0902 -0.1448 0.1223 0.163 -0.1438
-0.0336 0.03568 0.0704 -0.02614 0.04202 -0.08777 0.014786 0.096
00000000: 7929 8aab e32c da2e 372e 022e 70a5 4f20
00000010: fa2e 7eac 682a 4d20 ba1e d4ae 492c 9faa
00000020: a12d c521 e829 eca3 e721 c228 ef27 ee27
00000030: 57ac 3cad 60b1 232c 8126 7e2a ce2c 3daf
00000040: 95ae 1729 bdb1 6bac 6c2f fe2e 1faf b1ab
00000050: 682d d1ad ddac b6ad 3cac cd25 a1a4 94ad
00000060: 8f30 fba1 43ac 2c2b 8197 1f2c 272b 3ead
00000070: d0ab 29a8 ef2a 052f 2e2d 4f2e feaf 1624
00000080: 6c24 e325 172e 74ac a720 2d28 34ac aa14
00000090: b9a9 802a 2428 362e 08b0 10af 4c2d b322
000000a0: 1827 9f24 3112 70ab 34a8 b7ad 3d28 1e22
000000b0: 7c9d 1e28 31ae c527 34a5 3129 ed28 3c2a
000000c0: ec29 4030 fca9 30a8 35a5 1720 b126 7428
000000d0: 2aa1 ee2d e51c 6b2b 5a2d acab 7b24 872b
000000e0: 0a2c 74b0 d528 2ab1 9baa f125 652d 972e
000000f0: 3d9c 4c2c f523 fb2f c728 2bb0 29b1 ef2c
00000100: 0118 199e 6d24 032c 81a3 23ae 0630 18b1
00000110: d929 83a5 2f2d 682d 882a 9a2c ad29 51a3
00000120: 3d2b a197 8925 cf2a acab 6b27 eeac 6fb4
00000130: 4d22 83ac 22b0 82a1 ea25 faad 272e ebac
00000140: 1bb1 5d16 5aac 192c 5529 39b0 002f 6dab
00000150: c02a be2a 2293 6931 4027 eab0 9f28 df21
00000160: e52c 1f18 f2af d930 ca2e c02c 961f 1a30
00000170: ec2e c1ad d920 9d24 a62e c9af efaf 05ac
00000180: 402c 31ac 3aad 752c 302e 6520 8da4 c7a9
00000190: 782c ecaa 1d2b 0130 48b0 8a2e c8ac 65ad
000001a0: 812f 6e2e 2b30 b520 8d2c 0530 03a3 9f35
000001b0: b0af 05ab b82a 06ac 0a13 532e 782d 03ae
000001c0: 01b1 612f 939e 47aa c328 1a2e 93b0 8c34
000001d0: 4caf 0d2c ba30 7921 6e2a 182a 862b f030
000001e0: 3625 6eaa f726 c62d a2b0 d42f 3731 9ab0
000001f0: 4da8 9128 812c b1a6 6129 9ead 9223 252e

model_2/conv2d_33/Conv2D;StatefulPartitionedCall/model_2/conv2d_33/Conv2D f2 [16, 3, 3, 16]
-0.00479 0.03156 -0.004436 0.0998 0.0955 -0.08124 0.01628 -0.08325
0.09265 -0.1521 -0.0924 0.04126 -0.078 0.1251 0.02463 -0.1097
0.04706 0.11383 -0.06122 -0.05225 0.013115 0.1488 0.12134 -0.04443
-0.11914 0.0329 0.014656 -0.01903 0.1462 -0.06003 0.01663 -0.1309
-0.1254 -0.01694 -0.02704 -0.108 -0.0191 -0.0206 0.01424 -0.1277
0.135 0.05737 -0.08905 -0.0536 -0.0158 -0.05325 0.01362 -0.09973
0.04422 -0.1768 0.06476 0.0368 -0.014946 0.00932 -0.0473 -0.0579
-0.0435 0.10803 0.1338 0.01163 -0.068 -0.05405 -0.0683 0.09924
0.1271 0.1431 0.09534 -0.0599 0.1089 -0.02295 0.1304 0.1274
-0.01888 0.03903 0.1211 0.022 0.0656 0.04144 -0.052 0.1035
0.1394 0.0259 0.04095 0.1539 -0.0775 -0.1198 0.01251 -0.02606
0.08685 0.01753 0.05814 -0.1387 -0.09985 0.1057 0.1157 0.03442
0.07196 0.008545 -0.0692 -0.0466 0.12366 -0.0529 0.03348 0.08777
0.0187 -0.005817 -0.0868 -0.06433 0.001924 0.0474 0.04193 0.0874
-0.08453 0.02997 -0.1246 -0.002256 -0.1138 -0.06464 0.04047 -0.1247
0.03592 -0.01686 0.02899 -0.0723 0.0658 0.0867 -0.0751 0.08746
0.1047 0.0768 -0.001879 -0.11444 -0.0383 0.1207 -0.05972 -0.04108
0.04712 -0.1161 -0.253 0.01611 -0.03473 0.08527 0.0886 -0.02028
0.0917 0.1084 0.10394 0.07025 -0.03287 -0.09534 -0.06122 0.0997
0.05716 0.0927 -0.01997 0.2139 -0.045 0.01381 0.104 -0.0785
-0.0988 -0.1285 -0.04074 -0.0524 0.08105 -0.00645 0.00836 -0.136
0.0967 -0.1735 0.2025 -0.1084 -0.1202 0.01507 -0.07886 0.05704
-0.1522 0.01379 -0.01698 0.0941 0.01677 0.09265 -0.0756 0.0668
-0.013405 -0.02502 -0.251 -0.4944 0.0313 0.06305 -0.1114 -0.05188
0.2242 0.04025 0.05148 0.00835 0.02304 0.0651 0.0581 0.0961
0.0841 0.01481 -0.003246 0.3137 0.1407 0.0657 -0.06635 -0.07385
-0.0838 -0.08203 0.003782 -0.1181 -0.1608 -0.03952 -0.05206 -0.1798
0.02672 -0.1128 0.203 -0.0409 0.03745 0.003658 -0.04355 -0.07654
-0.11414 -0.03146 -0.1251 0.02173 0.02032 0.003061 -0.09845 -0.02852
-0.1266 -0.000397 -0.223 -0.4321 -0.07275 -0.001392 -0.05865 0.05035
0.12335 0.04114 -0.02673 0.02156 -0.1282 -0.1119 0.06137 0.1375
-0.0505 0.0923 0.1188 0.08044 -0.00907 -0.006824 0.1383 0.0396
00000000: e89c 0a28 8b9c 632e 1d2e 33ad 2b24 54ad
00000010: ee2d deb0 eaad 4829 feac 0130 4e26 05af
00000020: 062a 492f d6ab b0aa b722 c330 c42f b0a9
00000030: a0af 3628 8123 dfa4 ae30 afab 4224 30b0
00000040: 03b0 56a4 eca6 e9ae e4a4 46a5 4a23 16b0
00000050: 5230 582b b3ad dcaa 0ba4 d1aa f922 62ae
00000060: a929 a8b1 252c b628 a7a3 c620 0eaa 69ab
00000070: 91a9 ea2e 4830 f421 5aac ebaa 5fac 5a2e
00000080: 1130 9430 1a2e abab f82e e0a5 2c30 1430
00000090: d5a4 ff28 c02f a225 332c 4e29 a8aa a02e
000000a0: 7630 a126 3e29 ed30 f6ac abaf 6822 aca6
000000b0: 8f2d 7d24 712b 70b0 64ae c42e 682f 6828
000000c0: 9b2c 6020 6eac f7a9 ea2f c5aa 4928 9e2d
000000d0: ca24 f59d 8ead 1eac e117 112a 5e29 982d
000000e0: 69ad ac27 f9af 9f98 48af 23ac 2e29 fbaf
000000f0: 9928 51a4 6c27 a1ac 362c 8c2d ceac 992d
00000100: b32e ea2c b297 53af e7a8 ba2f a5ab 42a9
00000110: 082a 6eaf 0cb4 2024 72a8 752d ac2d 31a5
00000120: de2d f02e a72e 7f2c 35a8 1aae d6ab 612e
00000130: 512b ef2d 1da5 d832 c3a9 1223 a82e 06ad
00000140: 53ae 1db0 37a9 b5aa 302d 9b9e 4820 5ab0
00000150: 302e 8db1 7b32 f0ae b1af b723 0cad 4d2b
00000160: dfb0 0f23 59a4 062e 4b24 ee2d d7ac 462c
00000170: dda2 68a6 04b4 e9b7 0228 092c 21af a4aa
00000180: 2d33 2729 972a 4620 e625 2b2c 702b 272e
00000190: 622d 9523 a69a 0535 8130 342c 3fac baac
000001a0: 5dad 40ad bf1b 8faf 25b1 0fa9 aaaa c1b1
000001b0: d726 38af 7f32 3ca9 cb28 7e1b 93a9 e6ac
000001c0: 4eaf 07a8 01b0 9025 3425 451a 4dae 4da7
000001d0: 0db0 818e 23b3 eab6 a8ac b495 82ab 722a
000001e0: e52f 4429 d8a6 8525 1ab0 29af db2b 6630
000001f0: 77aa e82d 9a2f 262d a5a0 fd9e 6d30 1229

model_2/conv2d_32/Conv2D;StatefulPartitionedCall/model_2/conv2d_32/Conv2D f2 [16, 3, 3, 16]
-0.1055 -0.11725 -0.05338 0.0673 -0.09576 0.01302 0.1635 -0.2412
-0.0186 0.02583 -0.1587 0.10175 -0.009735 -0.04752 0.1138 -0.0828
-0.03445 -0.04416 -0.07086 -0.08124 -0.02605 0.0508 0.02592 -0.1584
-0.1179 -0.1282 -0.08716 -0.1003 -0.1261 -0.059 -0.1299 -0.0758
0.01788 0.1443 -0.0573 -0.0634 0.0341 0.02979 0.05002 0.1849
-0.00534 -0.03574 0.004658 -0.04105 -0.08154 -0.12195 -0.0803 -0.04004
-0.00663 0.04843 0.0837 0.03925 -0.0772 -0.07056 0.0702 0.0441
-0.1461 0.10913 0.01987 -0.01878 0.0848 -0.0983 0.08124 -0.1268
0.05356 0.01616 -0.01674 0.11847 0.0001495 -0.03915 0.02806 -0.01788
0.05585 -0.01145 -0.1473 0.02075 0.11554 -0.10315 -0.09357 0.1322
-0.0516 -0.00518 0.175 -0.11475 0.1582 -0.01755 0.1564 0.06775
0.11884 0.04257 -0.1571 0.1642 0.05783 -0.10724 -0.04642 -0.1362
-0.05542 0.01996 0.0008836 -0.1594 0.05508 -0.0827 -0.2131 -0.1414
0.1306 -0.05435 -0.1738 0.03766 -0.1169 -0.2178 -0.05984 -0.00837
-0.05484 -0.0821 -0.05795 -0.0006514 0.04663 -0.002441 -0.1018 0.03705
-0.03635 0.02365 0.06198 -0.07874 0.1207 -0.172 0.0692 -0.1572
-0.02173 0.07965 0.1302 0.03317 0.0191 -0.0523 -0.0836 0.08453
0.1284 -0.1292 -0.09283 0.1543 -0.05627 0.005356 -0.04565 -0.0949
0.00517 0.1115 -0.03088 0.1312 0.0514 0.009384 0.09937 -0.02394
-0.0404 -0.1156 0.1354 -0.1034 0.0384 0.1104 -0.1047 -0.1454
-0.06665 0.1041 0.0829 -0.0899 -0.1484 0.0773 -0.09344 -0.0363
0.1361 0.0538 -0.104 0.1026 -0.06726 -0.08344 0.014465 -0.07806
0.068 -0.10333 0.0451 -0.05673 0.0703 0.09674 -0.07184 -0.0704
0.1215 0.1236 -0.0755 0.09534 0.047 0.02428 0.06052 0.0816
0.05823 0.1313 -0.04456 -0.0496 0.02376 -0.04492 0.03595 0.06183
-0.0978 -0.05753 -0.0815 0.1395 0.003372 -0.01628 0.0979 -0.12225
-0.1693 0.03918 -0.04553 -0.1017 -0.11053 -0.02182 -0.0471 0.00597
0.0808 0.06824 0.004963 -0.04523 0.05225 -0.09705 -0.00662 -0.024
0.11536 0.12067 0.1149 -0.1271 0.02518 -0.0162 0.04352 -0.03555
-0.002277 0.0631 0.158 0.02539 0.0791 -0.145 0.08813 0.1376
-0.0418 0.0689 -0.1323 0.1134 0.07587 -0.05106 0.04507 0.1094
-0.1201 -0.08563 -0.09705 0.06122 -0.1163 0.0181 -0.04953 -0.09827
00000000: c1ae 81af d5aa 4f2c 21ae ab22 3b31 b8b3
00000010: c3a4 9d26 14b1 832e fca0 15aa 482f 4dad
00000020: 69a8 a7a9 89ac 33ad aba6 812a a326 12b1
00000030: 8caf 1ab0 94ad 6bae 09b0 8dab 28b0 daac
00000040: 9424 9e30 56ab 0fac 5d28 a027 672a eb31
00000050: 789d 93a8 c51c 41a9 38ad ceaf 24ad 20a9
00000060: ca9e 332a 5b2d 0629 f1ac 84ac 7e2c a529
00000070: adb0 fc2e 1625 cfa4 6d2d 4bae 332d 0fb0
00000080: db2a 2324 49a4 952f e608 03a9 2f27 94a4
00000090: 262b dda1 b7b0 5025 652f 9aae fdad 3b30
000000a0: 9baa 4e9d 9a31 58af 1031 7ea4 0131 562c
000000b0: 9b2f 7329 07b1 4131 672b ddae f1a9 5cb0
000000c0: 18ab 1c25 3d13 1ab1 0d2b 4bad d2b2 86b0
000000d0: 2e30 f5aa 90b1 d228 7baf f8b2 a9ab 49a0
000000e0: 05ab 41ad 6bab 5691 f829 0099 84ae be28
000000f0: a7a8 0e26 ef2b 0aad ba2f 81b1 6e2c 08b1
00000100: 90a5 192d 2b30 3f28 e424 b2aa 5aad 692d
00000110: 1c30 22b0 f1ad f030 34ab 7c1d d8a9 13ae
00000120: 4b1d 232f e8a7 3330 942a ce20 5c2e 21a6
00000130: 2ca9 66af 5530 9eae ea28 112f b3ae a7b0
00000140: 44ac aa2e 4e2d c1ad c0b0 f22c fbad a5a8
00000150: 5b30 e32a a8ae 912e 4eac 57ad 6823 ffac
00000160: 5a2c 9dae c629 43ab 802c 312e 99ac 81ac
00000170: c72f e92f d5ac 1a2e 042a 3726 bf2b 392d
00000180: 742b 3430 b4a9 59aa 1526 c0a9 9a28 ea2b
00000190: 42ae 5dab 37ad 7730 e81a 2ba4 442e d3af
000001a0: 6bb1 0429 d4a9 82ae 13af 96a5 07aa 1d1e
000001b0: 2c2d 5e2c 151d caa9 b02a 36ae c79e 25a6
000001c0: 622f b92f 5b2f 11b0 7226 26a4 9229 8da8
000001d0: aa98 0a2c 0e31 8026 102d a4b0 a42d 6730
000001e0: 5aa9 692c 3cb0 422f db2c 89aa c529 002f
000001f0: b0af 7bad 36ae d62b 71af a224 57aa 4aae

model_2/conv2d_31/Conv2D;StatefulPartitionedCall/model_2/conv2d_31/Conv2D f2 [16, 3, 3, 16]
-0.03128 -0.01956 -0.06537 -0.02068 -0.0796 0.01906 -0.0954 -0.03156
0.1439 0.02824 -0.0604 0.0904 0.03394 -0.1444 0.1234 -0.02649
0.03244 0.1431 -0.0807 0.1285 -0.0342 -0.1372 -0.08295 -0.125
0.1403 -0.003447 -0.05896 -0.03607 -0.01938 -0.08514 -0.02531 -0.05142
-0.1152 -0.02866 0.03345 0.1278 0.1301 0.07043 0.1282 -0.1256
0.02122 -0.05524 0.0744 0.03482 0.03662 0.1232 0.09924 0.0341
0.1143 -0.0009465 0.007633 -0.0653 0.0652 0.4397 -0.0883 -0.1278
-0.00944 -0.01019 0.0986 0.0636 0.00416 -0.10486 0.08923 0.05453
-0.0877 -0.0776 -0.1011 -0.1404 -0.001049 -0.04852 0.0651 0.013695
0.06726 0.01799 -0.0867 -0.0824 -0.0784 -0.0937 0.148 0.03915
0.1364 -0.02652 -0.1648 -0.03458 0.04956 -0.01857 -0.066 -0.0009246
-0.1271 -0.07855 0.2018 0.08856 0.07355 0.1653 0.11835 0.0669
-0.04477 0.1022 -0.02153 0.00914 0.0664 -0.05023 0.03854 0.06903
0.03326 0.01527 -0.05893 0.06665 0.0768 -0.0544 0.002098 -0.0677
0.05173 0.10046 0.0904 -0.12225 0.1162 -0.05338 0.0748 0.0253
0.1039 -0.003065 -0.0546 0.03516 -0.1189 -0.0686 -0.06088 -0.07886
-0.0639 -0.00857 0.1257 -0.07635 -0.03424 -0.03336 0.10345 -0.0891
-0.0652 0.07166 -0.1023 0.1709 -0.05374 0.1307 0.05536 -0.03705
-0.04022 -0.04825 0.01608 -0.002289 -0.07495 0.1941 -0.1251 0.014786
0.0664 -0.1171 0.1324 0.1592 -0.1309 -0.03867 0.11774 0.1327
-0.0006757 0.05585 -0.1227 0.08093 0.01872 0.06696 0.1114 0.03574
0.01089 -0.1381 0.08887 0.02534 -0.145 -0.1335 0.11993 -0.02808
-0.05408 -0.0205 -0.07153 0.02127 0.0841 -0.0562 0.1355 0.0816
-0.01569 -0.1204 0.1079 0.05627 0.05545 0.11646 -0.01319 -0.0755
0.11096 -0.00901 -0.03035 -0.03256 -0.0863 -0.06064 0.137 -0.0843
-0.1382 0.0005164 0.1276 0.1458 -0.02467 0.1353 -0.09515 -0.07697
-0.02191 0.08624 0.03177 0.0724 0.01895 -0.0412 -0.00516 0.01956
0.06665 0.08875 0.1975 0.01 -0.0651 0.1394 -0.04398 -0.0254
-0.01588 -0.05896 -0.04337 -0.05453 0.08765 0.10394 -0.08386 -0.02042
0.0237 -0.0217 -0.02592 -0.00010604 -0.00887 -0.1115 0.01479 -0.1525
0.00944 -0.0538 0.02673 0.06088 -0.06116 -0.061 0.02095 0.06274
0.02255 -0.0567 0.0116 0.1187 -0.01062 0.1073 0.01092 -0.05432
00000000: 01a8 02a5 2fac 4ba5 18ad e124 1bae 0aa8
00000010: 9b30 3b27 bbab c92d 5828 9fb0 e62f c8a6
00000020: 2728 9430 2aad 1d30 61a8 64b0 4fad 00b0
00000030: 7d30 0f9b 8cab 9ea8 f6a4 73ad 7ba6 95aa
00000040: 5faf 56a7 4828 1730 2a30 822c 1a30 05b0
00000050: 6f25 12ab c32c 7528 b028 e32f 5a2e 5d28
00000060: 512f c193 d11f 2eac 2c2c 0937 a7ad 17b0
00000070: d5a0 38a1 4f2e 122c 431c b6ae b62d fb2a
00000080: 9dad f7ac 78ae 7eb0 4c94 36aa 2b2c 0323
00000090: 4e2c 9b24 8cad 46ad 05ad ffad bc30 0329
000000a0: 5d30 caa6 46b1 6da8 582a c1a4 39ac 9393
000000b0: 11b0 07ad 7532 ab2d b52c 4a31 932f 482c
000000c0: bba9 8a2e 83a5 ae20 402c 6eaa ef28 6b2c
000000d0: 4228 d123 8bab 442c ea2c f7aa 4c18 55ac
000000e0: 9f2a 6e2e c92d d3af 702f d5aa ca2c 7a26
000000f0: a62e 479a fdaa 8028 9caf 64ac cbab 0cad
00000100: 17ac 63a0 0630 e3ac 62a8 45a8 9f2e b4ad
00000110: 2cac 962c 8cae 7831 e1aa 2f30 162b bea8
00000120: 26a9 2daa 1e24 b098 ccac 3632 01b0 9223
00000130: 402c 7faf 3d30 1831 30b0 f3a8 892f 3f30
00000140: 8991 262b daaf 2e2d cb24 492c 212f 9328
00000150: 9321 6bb0 b02d 7d26 a4b0 46b0 ad2f 30a7
00000160: ecaa 3fa5 94ac 7225 622d 32ab 5630 392d
00000170: 04a4 b5af e82e 342b 192b 742f c1a2 d5ac
00000180: 1a2f 9da0 c5a7 2ba8 86ad c3ab 6230 65ad
00000190: 6cb0 3b10 1530 aa30 51a6 5430 17ae edac
000001a0: 9ca5 852d 1128 a22c da24 46a9 499d 0225
000001b0: 442c ae2d 5232 1f21 2bac 7630 a1a9 81a6
000001c0: 11a4 8cab 8da9 fbaa 9c2d a72e 5ead 3aa5
000001d0: 1126 8ea5 a3a6 f386 8ba0 23af 9323 e1b0
000001e0: d520 e3aa d826 cb2b d4ab cfab 5d25 042c
000001f0: c625 42ab f021 992f 70a1 de2e 9721 f4aa

model_2/conv2d_30/Conv2D;StatefulPartitionedCall/model_2/conv2d_30/Conv2D f2 [16, 3, 3, 16]
-0.1271 -0.2169 0.01779 -0.1553 0.0786 0.0716 0.1611 -0.0984
-0.0562 -0.0775 -0.1016 0.1803 0.0729 0.01095 0.0212 0.1171
0.0905 -0.1103 0.12427 0.06226 0.007668 0.05038 0.11 0.1171
0.07025 0.11725 -0.03183 0.005352 0.1417 -0.02463 -0.03632 -0.02174
-0.01052 -0.3843 0.04367 -0.0908 0.05713 -0.12427 -0.0383 -0.1245
0.04437 -0.08936 -0.2544 0.035 0.1501 0.247 -0.09247 0.1316
0.1744 -0.06586 -0.0515 -0.05234 -0.07263 -0.0891 0.000869 0.1833
-0.07874 -0.0281 -0.07776 0.03372 -0.1006 -0.03406 -0.1244 -0.03497
-0.0645 -0.01642 -0.03108 0.02446 0.1204 0.1061 0.0829 0.2139
0.03754 -0.1943 -0.02617 -0.1536 -0.1793 -0.05487 -0.09436 -0.1329
0.03903 -0.0295 -0.01884 0.1794 -0.119 0.04712 0.08966 0.09973
-0.03903 -0.1074 0.01813 -0.02295 -0.05792 0.062 -0.1774 -0.2532
-0.0749 0.001182 -0.03528 -0.01026 -0.005684 -0.006657 -0.0619 -0.0815
-0.11334 0.0412 -0.05777 0.01952 -0.09216 -0.1382 0.1385 -0.10547
-0.0435 0.1754 0.05704 -0.1267 -0.273 0.009544 0.02336 -0.10236
-0.07367 -0.0966 -0.03595 -0.1644 -0.05634 -0.2844 -0.04352 0.061
0.02464 0.11066 0.11145 0.02968 0.1835 -0.03696 -0.015045 0.0178
0.00938 0.0936 -0.1577 -0.1233 0.03632 -0.2603 0.09314 -0.00453
-0.02148 0.002459 0.06714 -0.0716 -0.05865 -0.05133 0.117 0.1373
0.02092 0.06396 -0.1616 0.08954 -0.06015 -0.045 0.0921 0.01738
-0.04718 0.1858 -0.003088 -0.0992 0.12427 0.08295 -0.086 0.1329
-0.00575 0.04575 -0.0806 -0.0652 -0.0824 0.11053 0.11334 0.05325
0.02463 0.03787 -0.05225 -0.03436 -0.13 0.06274 0.05823 -0.01025
0.1276 -0.1007 -0.1569 -0.0849 0.1528 -0.2017 0.1064 -0.007187
-0.06055 0.08905 0.01595 -0.005314 0.0676 -0.00957 0.02077 0.08435
-0.08264 0.08923 -0.1251 0.04657 -0.0777 -0.0639 0.02124 -0.0441
0.1268 0.168 -0.0211 -0.04575 -0.03275 -0.112 0.1589 0.1045
-0.076 -0.007576 -0.1759 -0.04047 0.01906 0.1943 0.05377 -0.04907
0.03065 0.0411 -0.0964 0.08673 -0.1696 0.1202 -0.0587 0.1154
-0.1216 0.10803 -0.2256 -0.02539 -0.1095 -0.001417 0.09607 0.045
0.0837 -0.00792 -0.01878 0.001926 -0.0003426 -0.0965 -0.05246 -0.076
0.12463 -0.1289 0.0487 0.0826 -0.0781 0.2279 -0.02339 0.0727
00000000: 11b0 f1b2 8e24 f8b0 082d 952c 2831 4cae
00000010: 32ab f6ac 81ae c531 aa2c 9b21 6d25 7f2f
00000020: cb2d 0faf f42f f82b da1f 732a 0a2f 7f2f
00000030: 7f2c 812f 13a8 7b1d 8930 4ea6 a6a8 91a5
00000040: 63a1 26b6 9729 d0ad 502b f4af e7a8 f8af
00000050: ae29 b8ad 12b4 7b28 ce30 e733 ebad 3630
00000060: 9531 37ac 98aa b3aa a6ac b4ad 1e13 de31
00000070: 0aad 32a7 faac 5128 70ae 5ca8 f6af 7aa8
00000080: 21ac 34a4 f5a7 4326 b52f ca2e 4e2d d832
00000090: ce28 38b2 b3a6 eab0 bdb1 06ab 0aae 41b0
000000a0: ff28 8da7 d3a4 be31 9eaf 082a bd2d 622e
000000b0: ffa8 e0ae a424 e0a5 6aab f02b adb1 0db4
000000c0: cbac d714 84a8 41a1 d29d d19e ecab 37ad
000000d0: 41af 4629 65ab ff24 e6ad 6cb0 6f30 c0ae
000000e0: 91a9 9d31 4d2b 0eb0 5eb4 e320 fb25 8dae
000000f0: b7ac 2fae 9aa8 43b1 36ab 8db4 92a9 cf2b
00000100: 4f26 152f 222f 9927 df31 bba8 b4a3 8f24
00000110: cd20 fe2d 0cb1 e4af a628 2ab4 f62d a49c
00000120: 80a5 0919 4c2c 95ac 82ab 92aa 7d2f 6530
00000130: 5b25 182c 2cb1 bb2d b3ab c3a9 e52d 7324
00000140: 0aaa f231 539a 59ae f42f 4f2d 81ad 4130
00000150: e39d db29 29ad 2cac 46ad 132f 412f d12a
00000160: 4e26 d928 b0aa 66a8 29b0 042c 742b 3fa1
00000170: 1530 72ae 05b1 6fad e430 74b2 cf2e 5c9f
00000180: c0ab b32d 1524 719d 542c e6a0 5125 662d
00000190: 4aad b62d 01b0 f629 f9ac 17ac 7025 a5a9
000001a0: 0f30 6031 67a5 dba9 31a8 2baf 1631 b02e
000001b0: ddac c29f a1b1 2ea9 e124 3832 e22a 48aa
000001c0: d927 4329 2bae 8d2d 6db1 b12f 83ab 632f
000001d0: c8af ea2e 38b3 80a6 02af ce95 262e c329
000001e0: 5b2d 0ea0 cfa4 e417 9d8d 2dae b7aa ddac
000001f0: fa2f 20b0 3c2a 492d 00ad 4b33 fda5 a72c

model_2/conv2d_29/Conv2D;StatefulPartitionedCall/model_2/conv2d_29/Conv2D f2 [16, 3, 3, 16]
-0.0906 0.0573 0.002577 -0.0733 0.01191 0.01765 -0.0362 0.1015
0.04843 0.109 0.0242 -0.109 -0.08844 -0.03458 -0.0872 -0.1252
0.03775 -0.0874 -0.02109 -0.1384 0.08124 0.006897 0.11237 0.01863
-0.00462 0.1283 0.03207 0.10645 -0.0679 -0.0632 -0.12396 0.1218
0.0339 0.009315 -0.07837 0.0408 0.1304 -0.0965 -0.11035 -0.1388
0.11145 0.0615 0.01523 -0.115 0.11816 -0.02628 -0.08624 -0.05917
-0.2292 0.03406 0.1127 -0.06097 0.1282 0.03906 -0.1059 -0.1065
0.0979 0.0542 -0.0045 0.0763 0.0919 -0.02367 -0.02422 0.0371
-0.11096 0.1401 -0.02873 -0.00807 0.1338 -0.2057 -0.04303 -0.0966
0.069 0.0904 0.1644 -0.07605 0.0166 -0.07007 -0.01177 0.1099
0.02019 0.01656 0.0851 0.1196 -0.06793 0.1033 -0.1022 0.0946
-0.0411 -0.00787 0.000184 0.06964 0.10095 0.1292 0.0405 -0.04727
0.01668 0.05173 -0.04306 0.1048 0.1274 -0.04147 -0.03107 -0.0837
-0.01434 0.02676 -0.05637 0.02888 0.02486 -0.1163 -0.02646 0.1186
-0.1514 -0.08966 0.003689 -0.01342 -0.1017 0.0565 0.0669 0.0164
0.1344 -0.0939 0.0743 0.012886 0.007305 -0.1034 0.0204 -0.0663
-0.0874 -0.1011 0.03723 -0.00635 0.04404 0.05664 -0.05707 -0.1321
-0.01328 0.12006 -0.04056 0.097 -0.02608 0.10425 -0.1022 -0.0729
0.031 0.1017 -0.01276 -0.0675 0.0324 -0.06323 0.1099 -0.013405
0.04065 0.0521 -0.03096 0.0769 0.01797 -0.021 0.1388 0.1345
-0.0793 0.04245 -0.12476 0.01813 -0.0738 -0.12177 0.06866 0.10333
-0.15 0.03308 0.01511 -0.08997 -0.05206 -0.02263 0.02757 0.10626
-0.009125 -0.0594 0.02582 -0.07416 -0.105 0.1653 0.09436 0.06995
-0.09656 -0.002499 -0.2375 0.06665 0.01233 -0.01004 -0.1332 0.0768
-0.094 0.014244 -0.08673 -0.1256 0.042 -0.0347 0.03503 -0.07416
0.0829 0.1532 0.01441 -0.0976 0.09576 -0.0303 -0.00699 -0.02779
0.10815 0.04733 -0.12366 0.0457 -0.0508 0.01084 0.04205 0.04214
0.1169 0.1223 -0.136 0.06052 0.0644 0.0684 -0.0402 -0.08936
0.2145 -0.01099 -0.1652 -0.08405 -0.02536 0.1674 0.0629 0.06604
0.0388 -0.06192 -0.1221 0.072 0.1259 0.06854 -0.02948 0.0418
0.09717 0.1006 0.00373 -0.10254 -0.0928 -0.2305 0.01595 -0.0804
0.01508 0.03766 -0.03616 0.1545 -0.011024 -0.0736 0.002167 0.1381
00000000: ccad 562b 4719 b1ac 1922 8524 a2a8 7f2e
00000010: 332a fa2e 3226 faae a9ad 6da8 95ad 02b0
00000020: d528 98ad 66a5 6eb0 332d 101f 312f c524
00000030: bb9c 1b30 1b28 d02e 58ac 0bac efaf cc2f
00000040: 5728 c520 04ad 3929 2c30 2dae 10af 71b0
00000050: 222f df2b cc23 5caf 902f baa6 85ad 93ab
00000060: 56b3 5c28 362f ceab 1a30 0029 c7ae d1ae
00000070: 442e f02a 9c9c e22c e22d 0fa6 33a6 c028
00000080: 1aaf 7c30 5ba7 22a0 4830 95b2 82a9 2fae
00000090: 6a2c c92d 4331 deac 4024 7cac 07a2 092f
000000a0: 2b25 3d24 722d a82f 59ac 9c2e 8aae 0e2e
000000b0: 43a9 08a0 080a 752c 762e 2230 2f29 0daa
000000c0: 4524 9f2a 83a9 b52e 1430 4fa9 f4a7 5bad
000000d0: 58a3 da26 37ab 6527 5d26 71af c6a6 972f
000000e0: d8b0 bdad 8e1b dfa2 82ae 3b2b 482c 3324
000000f0: 4d30 02ae c12c 9922 7b1f 9eae 3925 3eac
00000100: 98ad 78ae c428 819e a329 402b 4eab 3ab0
00000110: cda2 af2f 31a9 352e ada6 ac2e 8aae aaac
00000120: f027 822e 88a2 52ac 2628 0cac 092f dda2
00000130: 3429 ab2a eda7 ec2c 9a24 60a5 7130 4e30
00000140: 13ad 6f29 fcaf a424 b9ac cbaf 652c 9d2e
00000150: cdb0 3c28 bc23 c2ad aaaa cba5 0f27 cd2e
00000160: aca0 9aab 9c26 bfac b8ae 4a31 0a2e 7a2c
00000170: 2eae 1e99 9ab3 442c 5022 24a1 43b0 ea2c
00000180: 04ae 4b23 8dad 05b0 6029 71a8 7c28 bfac
00000190: 4e2d e730 6123 3fae 212e c2a7 289f 1da7
000001a0: ec2e 0f2a eaaf d929 81aa 8d21 6229 6529
000001b0: 7b2f d42f 5ab0 bf2b 1f2c 612c 25a9 b8ad
000001c0: dd32 a0a1 49b1 61ad 7ea6 5b31 072c 3a2c
000001d0: f728 edab d0af 9c2c 0730 632c 8ca7 5a29
000001e0: 382e 702e a41b 90ae f0ad 60b3 1524 25ad
000001f0: b923 d228 a1a8 f230 a5a1 b6ac 7018 6b30

model_2/conv2d_28/Conv2D;StatefulPartitionedCall/model_2/conv2d_28/Conv2D f2 [16, 3, 3, 16]
-0.02031 0.0957 -0.1738 -0.1521 -0.1824 -0.1305 -0.1455 -0.172
-0.1627 0.00772 0.0405 -0.03745 -0.1901 -0.00596 -0.1526 -0.1954
0.1663 -0.1106 -0.04523 -0.0116 -0.00143 -0.06696 0.002705 0.082
-0.001945 -0.05356 -0.01467 0.1219 0.1201 0.08276 0.04318 0.04623
0.009766 0.02797 -0.014854 0.0987 -0.002922 -0.17 0.03348 -0.03035
0.00648 -0.04074 0.007137 -0.03378 -0.03958 0.03827 0.002995 0.0688
-0.1621 0.0256 -0.1289 -0.1539 -0.02951 -0.014885 -0.02582 -0.1368
-0.1979 -0.001105 -0.06635 -0.1787 -0.0701 -0.002323 0.04843 -0.04123
-0.1702 -0.03357 0.0627 0.2192 -0.147 0.143 -0.07776 -0.05585
-0.02391 0.06207 0.2456 -0.1268 0.0815 0.1438 0.01559 -0.08716
-0.03604 -0.1433 0.10596 -0.08765 -0.09735 -0.103 0.1548 0.09045
-0.1572 0.05368 0.05072 -0.05194 0.0843 0.06415 -0.007526 -0.1013
0.08844 0.012314 0.01686 0.02591 -0.1608 0.06366 0.03226 0.00245
0.0926 -0.01487 0.0591 0.04306 -0.09607 -0.0613 0.0508 0.09503
0.010826 -0.1562 -0.07086 0.0631 -0.0845 0.10706 -0.002409 0.01634
0.0836 0.04218 -0.04416 0.0671 0.11127 -0.08575 -0.002413 -0.1312
0.0341 0.0727 -0.0823 -0.004383 -0.1755 -0.0814 -0.1273 -0.064
-0.0922 0.02196 0.02707 -0.1187 -0.072 0.03014 -0.2153 -0.001917
-0.0592 -0.004612 0.08484 0.0477 0.04697 0.02115 0.04196 -0.03802
-0.1329 0.03528 -0.1274 0.06033 0.1362 0.04745 -0.1132 0.0895
-0.0612 -0.02425 -0.10645 -0.04956 0.113 0.0522 0.06885 0.0832
-0.0702 0.10535 -0.1353 0.06726 0.1198 -0.0962 0.04346 -0.1038
0.1431 -0.01197 -0.042 0.000556 0.1311 -0.1085 0.03137 0.03784
0.06125 0.04013 0.01066 0.0397 0.0175 -0.0477 -0.0517 -0.1043
0.0199 -0.09106 0.07184 -0.0653 0.0991 -0.08905 0.1278 -0.1305
0.03253 -0.02483 -0.003918 0.04733 0.1152 -0.1737 -0.094 0.04453
0.0413 0.065 0.03906 0.02477 -0.02902 -0.04565 0.0015335 0.05353
0.02687 -0.08405 -0.0758 0.0546 -0.09924 -0.0338 0.03137 0.1495
-0.0508 0.0569 -0.0947 0.1487 0.05695 -0.03452 0.0889 -0.1255
-0.0859 -0.1077 -0.02354 0.1666 -0.04086 -0.08746 0.06155 0.0641
-0.07965 0.1305 -0.06125 -0.07 0.05133 -0.0368 -0.068 -0.0654
0.0913 0.1021 0.01833 -0.03757 -0.0757 0.09644 0.05148 -0.00795
00000000: 33a5 202e 90b1 deb0 d6b1 2db0 a8b0 81b1
00000010: 35b1 e81f 2f29 cba8 15b2 1a9e e2b0 41b2
00000020: 5231 14af caa9 f0a1 db95 49ac 8a19 3f2d
00000030: f797 dbaa 83a3 cd2f b02f 4c2d 8729 eb29
00000040: 0021 2927 9ba3 512e fc99 71b1 4928 c5a7
00000050: a31e 37a9 4f1f 53a8 11a9 e628 221a 672c
00000060: 30b1 8e26 20b0 edb0 8ea7 9fa3 9ca6 61b0
00000070: 55b2 8794 3fac b8b1 7dac c298 332a 47a9
00000080: 72b1 4ca8 032c 0433 b4b0 9330 faac 26ab
00000090: 1fa6 f22b dc33 0fb0 372d 9a30 fb23 94ad
000000a0: 9da8 96b0 c82e 9cad 3bae 98ae f430 ca2d
000000b0: 08b1 df2a 7e2a a6aa 652d 1b2c b59f 7cae
000000c0: a92d 4e22 5124 a226 25b1 132c 2128 0519
000000d0: ed2d 9da3 912b 8329 26ae d9ab 812a 152e
000000e0: 8b21 00b1 89ac 0a2c 68ad da2e ef98 2f24
000000f0: 5a2d 6629 a7a9 4b2c 1f2f 7dad f198 33b0
00000100: 5d28 a72c 44ad 7d9c 9eb1 36ad 13b0 19ac
00000110: e7ad 9f25 ee26 99af 9cac b727 e4b2 da97
00000120: 94ab b99c 6e2d 1b2a 032a 6a25 5f29 dea8
00000130: 41b0 8428 14b0 b92b 5c30 132a 3faf ba2d
00000140: d5ab 35a6 d0ae 58aa 3b2f ae2a 682c 532d
00000150: 7eac be2e 54b0 4e2c ab2f 28ae 9029 a5ae
00000160: 9430 21a2 60a9 8e10 3230 f2ae 0428 d828
00000170: d72b 2329 7521 1529 7b24 1baa 9eaa adae
00000180: 1825 d4ad 992c 2eac 582e b3ad 1730 2db0
00000190: 2a28 5ba6 039c 0f2a 5f2f 8fb1 04ae b329
000001a0: 4929 292c 0029 5726 6ea7 d8a9 4816 da2a
000001b0: e126 61ad daac fd2a 5aae 54a8 0428 c930
000001c0: 81aa 482b 10ae c230 4a2b 6ba8 b12d 04b0
000001d0: 7fad e5ae 07a6 5531 3ba9 99ad e12b 1a2c
000001e0: 19ad 2d30 d7ab 7bac 922a b6a8 5aac 30ac
000001f0: d82d 892e b124 cfa8 d8ac 2c2e 972a 12a0

model_2/conv2d_27/Conv2D;StatefulPartitionedCall/model_2/conv2d_27/Conv2D f2 [16, 3, 3, 16]
-0.037 0.1277 0.1292 -0.03607 -0.08276 -0.0545 0.0682 0.00914
-0.06232 -0.1549 -0.03084 -0.01572 -0.1337 0.02567 -0.01718 -0.00995
0.0521 0.01758 -0.11865 0.1295 -0.1302 0.012436 -0.11536 0.0699
0.0555 -0.02377 0.0415 -0.007935 0.01113 0.1284 -0.1278 0.06305
-0.0981 -0.1293 0.1111 0.0908 0.09283 0.04822 -0.06003 0.08295
0.118 -0.0941 0.1501 0.1422 -0.069 -0.11206 0.0978 -0.0415
-0.0718 -0.09814 0.009285 -0.0799 -0.0711 -0.1505 0.1647 -0.0822
-0.0588 -0.05582 0.0659 -0.0529 0.06024 0.1394 0.0811 0.02376
0.1337 -0.0654 -0.012375 0.0461 0.02002 0.03918 0.1442 -0.03522
-0.0695 0.04623 0.0934 -0.0685 -0.0971 0.1249 -0.04437 0.01671
0.004845 0.0719 0.1283 0.0624 0.06158 -0.003138 -0.08844 -0.01653
-0.068 -0.01221 -0.03674 -0.03497 -0.00618 0.00161 0.04 0.1394
-0.1418 -0.06793 0.02263 -0.0745 -0.0561 -0.0714 -0.089 0.03867
-0.09076 -0.0795 0.09503 -0.07416 -0.1919 0.03247 0.0561 -0.0654
0.0687 0.0442 -0.1128 -0.04733 0.03494 -0.0917 -0.01723 -0.08246
0.081 -0.08875 0.0606 0.1545 0.09265 -0.03458 0.1034 -0.01214
-0.02412 0.1076 0.0416 0.0496 -0.0518 -0.0728 0.001325 -0.1243
0.0799 0.02908 0.0556 0.1791 0.1521 -0.1287 -0.03038 0.1357
0.0377 -0.1547 -0.0632 -0.00916 0.1478 0.02927 -0.04245 0.02477
0.007324 0.2391 0.1744 0.3342 0.0376 -0.05487 -0.0567 -0.08246
-0.011734 0.1791 -0.0664 -0.0001053 -0.03195 -0.0166 -0.09784 0.03915
-0.05295 0.01453 0.3215 0.1752 -0.03026 0.08795 0.1459 -0.0653
0.0355 0.0419 0.1328 0.092 0.0565 0.03062 0.12476 0.0712
0.09875 -0.2448 0.2593 0.2458 0.1167 0.11334 0.05298 0.1061
0.1132 0.009995 -0.11945 0.04587 0.03833 -0.1547 -0.04385 -0.01229
-0.05118 -0.376 -0.02303 0.0433 -0.08624 -0.1249 0.0429 -0.02248
-0.03516 -0.124 -0.0499 0.1197 -0.1288 -0.1727 -0.05112 -0.02649
-0.01272 0.1239 0.1642 0.1475 -0.098 -0.10333 -0.0564 -0.02013
0.05243 -0.0774 0.05225 -0.03387 -0.1062 0.0402 0.02597 -0.07416
0.01495 -0.02098 0.3408 -0.03638 0.002033 -0.1342 -0.01053 -0.0888
-0.131 0.03049 0.10596 -0.05466 -0.00218 -0.09216 -0.02118 0.00531
-0.05713 -0.1687 0.2216 0.1418 0.0797 -0.08344 -0.0656 -0.00753
00000000: bca8 1630 2230 9ea8 4cad faaa 5d2c ae20
00000010: faab f5b0 e5a7 06a4 47b0 9226 66a4 18a1
00000020: ab2a 8024 98af 2530 2bb0 5e22 62af 792c
00000030: 1b2b 16a6 5029 10a0 b321 1c30 17b0 092c
00000040: 47ae 23b0 1c2f d02d f12d 2c2a afab 4f2d
00000050: 8d2f 06ae ce30 8d30 6aac 2caf 422e 50a9
00000060: 98ac 48ae c120 1dad 8dac d1b0 4531 43ad
00000070: 87ab 25ab 382c c5aa b62b 7630 312d 1526
00000080: 4730 30ac 56a2 e729 2025 0429 9d30 82a8
00000090: 73ac eb29 fa2d 62ac 37ae fe2f aea9 4724
000000a0: f61c 9a2c 1b30 fd2b e22b 6d9a a9ad 3ba4
000000b0: 5aac 40a2 b4a8 7aa8 549e 9816 1f29 7630
000000c0: 8ab0 59ac cb25 c5ac 2eab 92ac b2ad f328
000000d0: cfad 17ad 152e bfac 24b2 2828 2e2b 30ac
000000e0: 662c a829 38af 0faa 7928 dead 69a4 47ad
000000f0: 2f2d aead c22b f230 ee2d 6da8 9e2e 37a2
00000100: 2da6 e32e 5329 592a a1aa a9ac 6d15 f5af
00000110: 1d2d 7227 1e2b bb31 de30 1eb0 c7a7 5830
00000120: d328 f3b0 0bac b1a0 bb30 7e27 6fa9 5726
00000130: 801f a733 9531 5935 d028 06ab 42ab 47ad
00000140: 02a2 bb31 40ac e786 17a8 40a4 43ae 0329
00000150: c7aa 7023 2535 9b31 bfa7 a12d ab30 2eac
00000160: 8b28 5d29 4030 e32d 3b2b d727 fc2f 8f2c
00000170: 522e d5b3 2634 de33 782f 412f c82a ca2e
00000180: 3f2f 1e21 a5af df29 e828 f3b0 9da9 4ba2
00000190: 8daa 04b6 e5a5 8b29 85ad feaf 7e29 c1a5
000001a0: 80a8 f0af 63aa a92f 1fb0 87b1 8baa c8a6
000001b0: 83a2 ee2f 4131 b830 46ae 9dae 38ab 27a5
000001c0: b62a f4ac b02a 56a8 ccae 2529 a626 bfac
000001d0: a823 5fa5 7435 a8a8 2a18 4bb0 64a1 afad
000001e0: 31b0 ce27 c82e ffaa 7798 e6ad 6ca5 701d
000001f0: 50ab 66b1 1733 8a30 1a2d 57ad 33ac b69f

model_2/conv2d_26/Conv2D;StatefulPartitionedCall/model_2/conv2d_26/Conv2D f2 [16, 3, 3, 16]
-0.005554 -0.02364 -0.1505 0.1016 0.0462 0.000689 0.0796 0.0894
0.05743 0.1449 0.05777 0.0445 -0.03577 -0.02464 -0.1027 -0.1
0.12335 -0.03116 0.1748 -0.013855 0.02467 -0.05637 0.11646 -0.02516
-0.06064 0.05283 0.0946 -0.1078 -0.0371 0.007717 -0.1415 -0.095
-0.010216 0.004414 -0.1342 -0.10065 -0.04034 0.0116 0.102 -0.11835
0.0785 0.10144 0.002298 0.11255 0.01113 0.02084 -0.00455 0.08594
0.1322 -0.02678 0.0752 0.07983 0.08844 -0.0702 0.0501 -0.005764
-0.04352 0.2102 -0.1154 -0.0964 0.036 0.02675 0.096 0.01813
0.1368 -0.2449 -0.04877 0.137 0.00233 0.11127 0.05194 -0.2007
0.1346 0.00637 -0.0541 -0.0487 0.09955 0.1414 0.0846 -0.1165
0.05145 -0.0698 -0.01559 0.05942 -0.0406 -0.076 0.01701 -0.1462
0.054 0.2456 0.07874 -0.01116 0.03436 0.01149 -0.02649 -0.05927
0.0292 0.0543 0.0792 0.0736 -0.0726 0.1053 -0.1093 0.1367
-0.07 -0.0844 0.131 -0.04404 -0.12476 0.0594 0.08966 0.0267
0.129 0.01233 0.1432 -0.01938 0.12305 0.004387 -0.0598 0.02711
-0.02522 0.0691 -0.0484 0.07556 -0.10443 0.05673 -0.1199 0.06094
0.1604 0.03394 -0.0705 -0.1335 -0.1106 -0.02344 -0.08575 0.1255
-0.02008 0.04593 -0.0629 0.0493 -0.1866 -0.0767 -0.1322 -0.1126
-0.06125 0.1373 -0.04663 0.0882 -0.141 0.015144 -0.01938 0.0941
-0.00522 0.071 -0.02597 0.03503 0.1051 -0.04013 -0.0455 0.014
-0.01778 -0.04465 0.055 -0.111 -0.08563 0.0861 0.0873 0.08655
0.0707 0.0877 0.1328 -0.00883 -0.0447 0.152 -0.0789 -0.013115
-0.055 -0.0325 -0.05954 -0.1162 0.125 0.006344 0.03043 -0.03165
0.008545 0.1267 -0.0902 -0.11774 -0.02109 0.03827 -0.01685 -0.01394
-0.10223 0.01178 0.0702 -0.02348 0.07513 -0.01327 -0.0828 -0.0426
0.004982 0.01991 -0.01906 -0.1045 0.0884 -0.0653 -0.01389 -0.015366
-0.04895 0.05054 0.126 -0.002365 -0.0452 -0.04456 0.1339 -0.02441
-0.0625 -0.1366 0.02623 0.03738 0.2817 0.006966 0.12085 -0.0959
-0.07764 0.1685 0.11224 0.0938 0.1323 0.0998 0.03256 0.07684
0.02037 0.07477 -0.0786 -0.1351 0.096 -0.02586 -0.045 0.04782
0.0768 -0.02599 0.0758 0.0566 -0.11273 -0.0993 0.01249 -0.0184
-0.01959 -0.1869 -0.00996 -0.002996 0.01152 -0.00776 0.02834 0.145
00000000: b09d 0da6 d1b0 812e ea29 a511 182d b92d
00000010: 5a2b a330 652b b229 94a8 4fa6 93ae 66ae
00000020: e52f faa7 9831 18a3 5126 37ab 742f 71a6
00000030: c3ab c32a 0e2e e6ae c0a8 e71f 87b0 14ae
00000040: 3ba1 851c 4bb0 71ae 2aa9 f021 872e 93af
00000050: 062d 7e2e b518 342f b321 5625 a99c 802d
00000060: 3b30 dba6 d02c 1c2d a92d 7eac 6a2a e79d
00000070: 92a9 ba32 63af 2bae 9c28 d926 252e a424
00000080: 6130 d6b3 3eaa 6230 c618 1f2f a62a 6cb2
00000090: 4f30 861e edaa 3caa 5f2e 8630 6a2d 75af
000000a0: 962a 78ac fba3 9b2b 32a9 ddac 5b24 aeb0
000000b0: e92a dc33 0a2d b7a1 6628 e221 c8a6 96ab
000000c0: 7a27 f32a 122d b62c a5ac bd2e ffae 6030
000000d0: 7bac 67ad 3130 a3a9 fcaf 9a2b bd2d d626
000000e0: 2130 5022 9530 f6a4 e02f 7e1c a8ab f126
000000f0: 75a6 6c2c 32aa d62c afae 432b acaf cd2b
00000100: 2231 5828 83ac 46b0 14af 00a6 7dad 0430
00000110: 24a5 e129 07ac 4f2a f9b1 e9ac 3bb0 35af
00000120: d7ab 6530 f8a9 a52d 83b0 c123 f6a4 062e
00000130: 589d 8b2c a6a6 7c28 ba2e 23a9 d3a9 2b23
00000140: 8da4 b7a9 0a2b 1baf 7bad 832d 962d 8a2d
00000150: 862c 9d2d 4030 85a0 b9a9 dd30 0dad b7a2
00000160: 0aab 29a8 9fab 70af 0030 7f1e ca27 0da8
00000170: 6020 0e30 c6ad 89af 66a5 e628 50a4 23a3
00000180: 8bae 0822 7e2c 03a6 cf2c cba2 4dad 74a9
00000190: 1a1d 1925 e1a4 b0ae a82d 2eac 1da3 dea3
000001a0: 44aa 782a 0830 d898 c9a9 b4a9 4930 40a6
000001b0: 00ac 5fb0 b726 c928 8234 221f bc2f 23ae
000001c0: f8ac 6431 2f2f 012e 3c30 632e 2b28 eb2c
000001d0: 3725 c92c 08ad 53b0 252e 9fa6 c3a9 1f2a
000001e0: ea2c a7a6 da2c 3f2b 37af 5bae 6522 b6a4
000001f0: 04a5 fbb1 19a1 239a e621 f29f 4127 a430

model_2/conv2d_25/Conv2D;StatefulPartitionedCall/model_2/conv2d_25/Conv2D f2 [16, 3, 3, 16]
-0.0621 0.08026 0.0936 0.05588 -0.03622 -0.004704 -0.263 -0.12006
0.088 -0.0082 0.0443 -0.1 0.03105 -0.0806 0.01764 0.04507
0.02542 -0.1103 -0.10474 -0.005558 0.04263 0.1361 0.1792 0.03802
-0.11224 0.12177 0.0634 0.1475 0.302 0.203 -0.0972 -0.0796
-0.022 0.01207 0.1345 0.1632 -0.05597 0.04025 0.168 0.0479
0.10974 -0.05353 0.04294 0.1604 0.1216 -0.0528 -0.0717 -0.0976
-0.07043 -0.1549 0.0636 -0.01129 -0.02798 -0.0739 -0.2125 -0.08813
-0.004066 -0.0805 0.01996 0.06964 0.10675 0.03345 0.1188 0.0841
0.1885 -0.0378 -0.03812 -0.0795 -0.1153 0.004925 0.2218 0.08386
-0.0339 0.1478 0.181 -0.188 0.002789 0.1427 -0.1033 -0.005978
-0.0686 -0.0733 0.0897 0.1206 0.0004256 0.152 0.08325 0.011
0.1448 0.3 0.2866 0.03888 0.0717 -0.11755 0.03195 0.04373
-0.1007 -0.10657 0.04437 0.02367 -0.0743 0.12164 -0.2181 -0.1254
-0.1157 -0.04684 -0.2107 0.1733 0.0774 0.0307 -0.04944 -0.07935
0.02565 -0.0534 0.0843 -0.03757 -0.1519 0.1696 0.1328 -0.1415
-0.12 0.07336 -0.0313 0.1199 0.3103 0.1095 -0.0648 -0.03308
0.1475 0.0639 -0.08905 -0.06003 0.08606 -0.02287 -0.005436 -0.109
-0.09283 0.02092 0.02426 0.1733 0.05463 -0.2335 0.05786 -0.0936
0.01923 -0.002804 0.11145 0.0633 -0.02571 0.00642 0.0846 -0.04855
-0.12054 -0.0419 -0.05444 0.0517 0.0356 -0.07184 -0.003067 0.0452
-0.0981 -0.0658 0.07666 -0.0634 -0.02052 -0.0205 -0.03026 0.07886
0.1587 -0.1559 -0.06976 0.00543 0.2047 -0.1274 -0.04636 0.10016
0.00541 0.03088 0.05206 0.06012 0.0386 0.1293 0.1265 0.0542
-0.00809 0.0001975 -0.10297 -0.1115 0.05045 -0.0604 -0.0869 0.0245
0.04514 0.02963 0.04108 0.0983 -0.08484 -0.0833 -0.2478 -0.05585
-0.07855 0.0671 -0.08673 0.1021 0.1667 -0.2935 -0.06885 0.0875
0.10406 0.1375 0.1123 0.05893 0.1416 -0.08 0.04965 -0.095
-0.05353 -0.03015 0.0655 -0.03265 0.04996 0.064 -0.02658 -0.04172
0.03195 -0.05368 0.0582 -0.03998 -0.1354 0.06775 -0.05783 -0.05798
-0.1716 0.1266 0.1206 -0.1539 0.183 -0.08777 0.00671 0.07306
0.02625 0.09515 -0.05676 -0.09 -0.1186 -0.06665 -0.216 0.1342
0.01967 0.1685 0.1235 0.0363 0.06525 -0.1348 0.02034 -0.033
00000000: f3ab 232d fe2d 272b a3a8 d19c 35b4 afaf
00000010: a22d 33a0 ac29 66ae f327 29ad 8424 c529
00000020: 8226 0faf b4ae b19d 7529 5b30 bc31 de28
00000030: 2faf cb2f 0f2c b830 d534 7f32 39ae 18ad
00000040: a2a5 2e22 4e30 3931 2aab 2729 6031 222a
00000050: 062f daaa 7f29 2231 c82f c2aa 97ac 3fae
00000060: 82ac f5b0 122c c8a1 2aa7 bbac cdb2 a4ad
00000070: 2a9c 27ad 1c25 752c d52e 4828 9a2f 622d
00000080: 0832 d7a8 e1a8 17ad 61af 0b1d 1933 5e2d
00000090: 57a8 bb30 cb31 04b2 b619 9130 9cae 1f9e
000000a0: 64ac b1ac be2d b82f f90e dd30 542d a221
000000b0: a230 cd34 9634 fa28 972c 86af 1728 9929
000000c0: 72ae d2ae ae29 0f26 c1ac c92f fbb2 03b0
000000d0: 68af ffa9 beb2 8c31 f42c dc27 54aa 14ad
000000e0: 9126 d6aa 652d cfa8 dcb0 6d31 4030 87b0
000000f0: aeaf b22c 02a8 ac2f f734 022f 26ac 3ca8
00000100: b830 172c b3ad afab 822d dba5 919d faae
00000110: f1ad 5b25 3626 8c31 fe2a 79b3 682b fead
00000120: ec24 be99 222f 0d2c 95a6 931e 6a2d 37aa
00000130: b7af 5da9 f8aa 9e2a 8f28 99ac 489a c929
00000140: 47ae 36ac e82c 0fac 41a5 3fa5 bfa7 0c2d
00000150: 1431 fdb0 77ac 8f1d 8d32 14b0 efa9 692e
00000160: 8a1d e827 aa2a b22b f128 2330 0c30 f02a
00000170: 24a0 790a 97ae 23af 752a bbab 90ad 4626
00000180: c729 9627 4229 4b2e 6ead 55ad eeb3 26ab
00000190: 07ad 4b2c 8dad 892e 5631 b2b4 68ac 9a2d
000001a0: a92e 6630 302f 8b2b 8830 1fad 5b2a 14ae
000001b0: daaa b8a7 312c 2ea8 652a 192c cea6 57a9
000001c0: 1728 dfaa 732b 1ea9 55b0 562c 67ab 6cab
000001d0: 7eb1 0d30 b82f edb0 db31 9ead df1e ad2c
000001e0: b826 172e 44ab c3ad 97af 44ac e9b2 4b30
000001f0: 0925 6431 e72f a528 2d2c 50b0 3525 39a8

model_2/conv2d_24/Conv2D;StatefulPartitionedCall/model_2/conv2d_24/Conv2D f2 [16, 3, 3, 3]
0.1633 -0.1576 0.005596 -0.03928 0.08905 -0.0602 -0.1084 0.1177
0.04172 0.05728 -0.1029 0.1509 0.03983 0.06866 0.0332 -0.127
-0.00975 0.03004 -0.0625 0.0737 -0.1688 0.10077 0.04474 -0.0617
-0.1703 0.1013 0.1219 -0.0429 0.04602 -0.1403 0.11395 0.05862
0.194 0.1473 -0.1682 -0.08795 -0.0854 0.093 0.0645 -0.09973
0.008194 0.1577 0.1609 -0.1494 0.1807 0.0091 0.0997 -0.03897
-0.1682 -0.05377 0.02286 -0.0862 0.0927 0.0994 0.1635 0.0524
-0.1035 0.172 -0.06635 -0.04337 0.07153 -0.1427 -0.04456 0.182
0.0883 -0.036 -0.01071 0.0942 -0.0499 -0.1482 -0.02011 0.1663
0.05414 -0.0409 -0.0672 0.1489 0.0964 -0.08575 -0.06305 0.1625
0.0429 -0.0579 0.1772 0.03452 0.023 -0.1719 0.0734 0.03302
-0.02126 -0.011795 -0.12305 0.05493 -0.02515 -0.1134 0.1367 -0.0865
-0.01593 0.1041 0.08594 0.1509 0.1733 0.0546 -0.0416 -0.07074
0.06 0.1223 0.06696 -0.08044 -0.0727 0.0315 -0.007797 0.1599
-0.02933 0.0677 -0.05942 0.1606 -0.05182 0.1414 -0.0785 0.02615
0.1144 -0.1039 0.1584 -0.03833 0.0732 -0.1086 0.162 -0.02577
-0.1207 0.0743 0.02579 -0.1181 -0.09106 -0.144 0.1802 -0.174
-0.03806 0.01314 0.1576 -0.1301 0.01235 -0.1678 0.1703 -0.1449
0.08356 0.02582 0.0765 0.08234 0.1407 -0.1708 -0.00927 0.1515
0.04834 0.12415 0.09216 -0.1744 -0.06464 -0.0731 0.02185 0.0605
-0.0929 -0.08734 -0.002687 0.0988 -0.1469 0.04257 0.00239 -0.05002
-0.3232 -0.3794 -0.2487 -0.02277 -0.06433 0.093 0.1098 0.1644
0.137 -0.0681 -0.0585 0.1167 0.0512 0.01617 -0.1979 0.01508
0.08325 -0.1272 -0.04398 -0.132 0.04474 0.1914 -0.10254 -0.0006137
-0.036 0.1268 -0.1266 0.03378 -0.06506 0.12244 -0.12024 -0.02853
-0.1448 -0.1436 0.0337 0.1155 0.1273 0.1641 0.1725 0.1652
0.1235 0.10156 -0.04507 -0.0278 -0.0249 -0.02945 0.0662 0.0647
0.0788 0.11633 0.006493 0.187 -0.09796 -0.02885 -0.0595 0.1469
0.151 0.0626 -0.1589 0.07666 0.179 0.03888 0.1644 -0.04758
0.07184 0.01729 -0.00791 0.0847 -0.03653 -0.0833 0.07574 0.0652
-0.1139 -0.1521 -0.0587 -0.08356 0.05 0.0309 0.164 -0.03595
-0.1015 -0.05286 -0.0964 0.1163 0.07227 0.10974 0.01324 0.074
00000000: 3a31 0bb1 bb1d 07a9 b32d b5ab f0ae 882f
00000010: 5729 552b 96ae d430 1929 652c 4028 10b0
00000020: fea0 b127 00ac b82c 67b1 732e ba29 e6ab
00000030: 73b1 7c2e cd2f 7ea9 e429 7db0 4b2f 812b
00000040: 3532 b730 62b1 a1ad 77ad f42d 212c 62ae
00000050: 3220 0c31 2631 c8b0 c831 a920 612e fda8
00000060: 62b1 e2aa da25 84ad ef2d 5d2e 3b31 b52a
00000070: a0ae 8131 3fac 8da9 942c 91b0 b4a9 d331
00000080: a72d 9ca8 7ca1 072e 63aa beb0 26a5 5231
00000090: ee2a 3ca9 4dac c430 2b2e 7dad 09ac 3331
000000a0: 7e29 69ab ac31 6b28 e325 80b1 b32c 3a28
000000b0: 71a5 0aa2 e0af 082b 70a6 42af 6030 89ad
000000c0: 14a4 aa2e 802d d430 8c31 fd2a 53a9 87ac
000000d0: ae2b d42f 492c 26ad a7ac 0828 fc9f 1e31
000000e0: 82a7 552c 9bab 2431 a2aa 8630 06ad b226
000000f0: 522f a6ae 1231 e8a8 af2c f3ae 2f31 99a6
00000100: baaf c12c 9a26 8faf d4ad 9cb0 c431 91b1
00000110: dfa8 ba22 0b31 2ab0 5322 5fb1 7331 a3b0
00000120: 592d 9c26 e52c 452d 8130 77b1 bfa0 d930
00000130: 302a f22f e62d 95b1 23ac aeac 9825 be2b
00000140: f2ad 97ad 8199 532e b3b0 7329 e518 67aa
00000150: 2cb5 12b6 f5b3 d4a5 1eac f42d 072f 4331
00000160: 6230 5cac 7dab 782f 8e2a 2424 55b2 b923
00000170: 542d 12b0 a1a9 39b0 ba29 2032 90ae 0791
00000180: 9ca8 0f30 0db0 5328 2aac d62f b2af 4ea7
00000190: a2b0 98b0 5028 642f 1330 4031 8531 4931
000001a0: e72f 802e c5a9 1ea7 60a6 8aa7 3d2c 242c
000001b0: 0b2d 722f a61e fc31 45ae 63a7 9eab b330
000001c0: d530 022c 16b1 e82c ba31 fa28 4331 17aa
000001d0: 992c 6d24 0da0 6c2d ada8 55ad d92c 2c2c
000001e0: 4aaf deb0 83ab 59ad 662a e927 3f31 9aa8
000001f0: 7fae c4aa 2bae 712f a02c 062f c722 bc2c
